…
e': [(2, 2), (3, 3), (4, 4)], 'learning_rate': [0.0001, 0.0005, 0.001, 0.002]}
/usr/local/lib/python3.6/dist-packages/sklearn/externals/joblib/externals/loky/process_executor.py:706: UserWarning: A worker stopped while some jobs were given to the executor. This can be caused by a too short worker timeout or by a memory leak.
  "timeout or by a memory leak.", UserWarning
_________________________________________________________________
Layer (type)                 Output Shape              Param #   
=================================================================
conv2d_96 (Conv2D)           (None, 26, 26, 8)         80        
_________________________________________________________________
max_pooling2d_91 (MaxPooling (None, 13, 13, 8)         0         
_________________________________________________________________
conv2d_97 (Conv2D)           (None, 11, 11, 16)        1168      
_________________________________________________________________
max_pooling2d_92 (MaxPooling (None, 5, 5, 16)          0         
_________________________________________________________________
flatten_46 (Flatten)         (None, 400)               0         
_________________________________________________________________
dense_91 (Dense)             (None, 20)                8020      
_________________________________________________________________
dense_92 (Dense)             (None, 10)                210       
=================================================================
Total params: 9,478
Trainable params: 9,478
Non-trainable params: 0
_________________________________________________________________
None
Epoch 1/15
60000/60000 [==============================] - 8s 135us/step - loss: 10.4650 - acc: 0.3469 - mean_absolute_error: 0.1306
Epoch 2/15
60000/60000 [==============================] - 4s 67us/step - loss: 4.7180 - acc: 0.6979 - mean_absolute_error: 0.0604
…
